…
__________________________________________________________________________________________________
 Layer (type)                   Output Shape         Param #     Connected to                     
==================================================================================================
 mimo_feature_input (InputLayer  [(None, 2, 10, 200,  0          []                               
 )                               2)]                                                              
                                                                                                  
 merge_batch_rx_pulse (Lambda)  (None, 200, 2)       0           ['mimo_feature_input[0][0]']     
                                                                                                  
 pn_matched_filter_bank (Conv1D  (None, 200, 2)      124         ['merge_batch_rx_pulse[0][0]']   
 )                                                                                                
                                                                                                  
 split_tx_iq (Lambda)           (None, 200, 1, 2)    0           ['pn_matched_filter_bank[0][0]'] 
                                                                                                  
 per_tx_power (Lambda)          (None, 200, 1)       0           ['split_tx_iq[0][0]']            
                                                                                                  
 to_virtual_channels_for_cfar (  (None, 200, 1)      0           ['per_tx_power[0][0]']           
 Lambda)                                                                                          
                                                                                                  
 os_cfar_ratio (Lambda)         (None, 200, 1)       0           ['to_virtual_channels_for_cfar[0]
                                                                 [0]']                            
                                                                                                  
 log_power (Lambda)             (None, 200, 1)       0           ['os_cfar_ratio[0][0]']          
                                                                                                  
 mimo_virtual_pulse_as_channel   (None, 200, 20)     0           ['log_power[0][0]']              
 (Lambda)                                                                                         
                                                                                                  
 conv1d_2 (Conv1D)              (None, 200, 32)      3232        ['mimo_virtual_pulse_as_channel[0
                                                                 ][0]']                           
                                                                                                  
 bn_1 (BatchNormalization)      (None, 200, 32)      128         ['conv1d_2[0][0]']               
                                                                                                  
 relu_1 (ReLU)                  (None, 200, 32)      0           ['bn_1[0][0]']                   
                                                                                                  
 conv1d_3 (Conv1D)              (None, 200, 64)      6208        ['relu_1[0][0]']                 
                                                                                                  
 bn_2 (BatchNormalization)      (None, 200, 64)      256         ['conv1d_3[0][0]']               
                                                                                                  
 relu_2 (ReLU)                  (None, 200, 64)      0           ['bn_2[0][0]']                   
                                                                                                  
 maxpool_1 (MaxPooling1D)       (None, 50, 64)       0           ['relu_2[0][0]']                 
                                                                                                  
 flatten (Flatten)              (None, 3200)         0           ['maxpool_1[0][0]']              
                                                                                                  
 dense_1 (Dense)                (None, 256)          819456      ['flatten[0][0]']                
                                                                                                  
 dropout_1 (Dropout)            (None, 256)          0           ['dense_1[0][0]']                
                                                                                                  
 dense_2 (Dense)                (None, 128)          32896       ['dropout_1[0][0]']              
                                                                                                  
 dropout_2 (Dropout)            (None, 128)          0           ['dense_2[0][0]']                
                                                                                                  
 pos_output (Dense)             (None, 2)            258         ['dropout_2[0][0]']              
                                                                                                  
 det_output (Dense)             (None, 1)            129         ['dropout_2[0][0]']              
                                                                                                  
 geo_output (Lambda)            (None, 2)            0           ['pos_output[0][0]']             
                                                                                                  
==================================================================================================
Total params: 862,687
Trainable params: 862,495
Non-trainable params: 192
__________________________________________________________________________________________________
…
